data.pth (torch, 3487 bytes, 6 tensors)

l1.weight f4 [8, 14]
-0.68915975 -0.6909842 -0.2842303 -0.53522986 -0.16650832 0.6607458 0.54828393 -0.6349496
0.83047324 0.5135797 1.0597885 0.39191458 -0.6869177 -0.69104207 -0.31655136 -0.29227617
0.89856005 0.79422814 0.90117484 -0.39074716 -0.39076665 -0.35597786 -0.1591955 -0.22715423
-0.34201756 -0.39076254 -0.25254777 0.6652017 0.4228884 0.6410521 -0.40072548 -0.38610238
-0.400717 0.5046034 0.4621698 0.52944064 -0.300274 -0.40088353 -0.40071058 0.5703972
0.6370179 -0.40056595 0.5346772 0.5056947 -0.05554152 -0.16561528 -0.083860636 -0.35781106
-0.35778174 0.78573126 -0.3559823 -0.35772654 -0.35785443 -0.2675436 0.39822683 -0.21393476
-0.20423672 -0.20370424 -0.18905854 -0.20377736 -0.26118135 -0.20389788 0.018717214 -0.2037297
0.43724692 0.8017643 -0.23627791 -0.20387612 -0.20376839 -0.203707 0.53512496 0.64487636
0.84613776 0.5857241 0.7154898 -0.64178056 -0.6997992 0.7268087 0.18737394 0.24537362
0.28748545 -0.76092553 0.73456085 0.6827498 -0.48070136 -0.32205087 0.10341749 0.13530993
-0.04908512 0.49383187 0.22215497 -0.21768372 0.6075421 0.53081363 0.8328867 0.69335
-0.5319877 0.16619276 0.64325213 0.5342808 -0.2915941 -0.370516 -0.25194007 0.8312303
0.7923287 0.75804865 -0.82523924 -0.8048278 -0.83273846 0.6142284 0.51865935 -0.44081202
00000000: c66c 30bf 57e4 30bf a286 91be d304 09bf
00000010: 2881 2abe a326 293f 565c 0c3f 0f8c 22bf
00000020: e599 543f f679 033f 26a7 873f 07a9 c83e
00000030: d7d9 2fbf 22e8 30bf 0513 a2be 39a5 95be
00000040: 0808 663f 8952 4b3f 65b3 663f 0310 c8be
00000050: 9112 c8be bb42 b6be 2504 23be 1e9b 68be
00000060: ed1c afbe 0712 c8be f14d 81be a94a 2a3f
00000070: d484 d83e fe1b 243f e42b cdbe 36af c5be
00000080: c72a cdbe b02d 013f 85a1 ec3e 6c89 073f
00000090: 84bd 99be 9b40 cdbe f029 cdbe 8d05 123f
000000a0: 9b13 233f fb16 cdbe 9be0 083f 3575 013f
000000b0: 817f 63bd 0d97 29be 20bf abbd 0333 b7be
000000c0: 2b2f b7be af25 493f 5043 b6be ef27 b7be
000000d0: b238 b7be 7afb 88be 63e4 cb3e b711 5bbe
000000e0: 6e23 51be d897 50be 9098 41be 03ab 50be
000000f0: 90b9 85be 9bca 50be d854 993c 859e 50be
00000100: d4de df3e 6d40 4d3f d6f2 71be e7c4 50be
00000110: a9a8 50be 9198 50be f3fd 083f 9e16 253f
00000120: 7c9c 583f 04f2 153f 572a 373f bb4b 24bf
00000130: 0a26 33bf 2310 3a3f f4de 3f3e 3943 7b3e
00000140: 4b31 933e 04cc 42bf 2e0c 3c3f b1c8 2e3f
00000150: 7d1e f6be dae3 a4be 8dcc d33d b08e 0a3e
00000160: 7b0d 49bd 88d7 fc3e 987c 633e 7be8 5ebe
00000170: e187 1b3f 67e3 073f 1038 553f 637f 313f
00000180: 5930 08bf 6f2e 2a3e 2cac 243f a0c6 083f
00000190: d24b 95be 46b4 bdbe 4afe 80be 82cb 543f
000001a0: 0ed6 4a3f 7a0f 423f e142 53bf 3209 4ebf
000001b0: 592e 55bf 133e 1d3f dcc6 043f 1db2 e1be

l1.bias f4 [8]
0.6910228 0.39073834 0.40072432 0.3577849 0.2037097 0.76094145 0.7310597 0.8327678
00000000: dfe6 303f db0e c83e bd2b cd3e 952f b73e
00000010: 4799 503e 0fcd 423f ba26 3b3f 4530 553f

l2.weight f4 [8, 8]
0.4944672 0.5559495 -0.8328763 -0.15971948 0.98432916 0.9001558 0.65796596 -0.8210305
-0.82545364 1.1410269 0.3898764 0.9747693 -0.62296826 0.8855725 -0.18653183 0.9008073
-0.2428379 0.2761127 0.20154914 -0.0711526 0.17902824 -0.10103992 -0.2114627 0.080782145
0.18012644 -0.2604308 -0.34477383 0.03261584 0.0070525706 -0.024391051 -0.0110986605 0.09745714
0.43965632 0.95343286 -0.7013678 -0.5359726 -0.52960914 0.19184648 0.6636088 0.10235088
0.80537426 -0.16663651 0.6412431 -1.168309 0.67972225 -0.75277656 0.89076847 0.7386357
1.0625727 -0.8688442 -0.07861655 -0.7410718 1.0366458 -0.104320906 0.833024 -0.3869532
-0.12975803 -1.1046033 1.1078333 1.241431 -0.5498643 -0.11511195 0.21220963 1.162005
00000000: ce2a fd3e b552 0e3f 6237 55bf 818d 23be
00000010: fffc 7b3f 9c70 663f 7570 283f 0e2f 52bf
00000020: ee50 53bf 2b0d 923f e19d c73e 7b8a 793f
00000030: d97a 1fbf e1b4 623f 3302 3fbe 4f9b 663f
00000040: 80aa 78be a55e 8d3e e662 4e3e 74b8 91bd
00000050: 2e53 373e 04ee cebd ae89 58be 1c71 a53d
00000060: 1173 383e 3057 85be 3286 b0be 3098 053d
00000070: 4019 e73b becf c7bc 28d7 35bc 9c97 c73d
00000080: a21a e13e 2d14 743f d78c 33bf 8035 09bf
00000090: 7794 07bf 6773 443e 44e2 293f 579d d13d
000000a0: 022d 4e3f c3a2 2abe 8228 243f 268b 95bf
000000b0: 4702 2e3f f7b5 40bf 6709 643f 3b17 3d3f
000000c0: 6202 883f 936c 5ebf b701 a1bd e2b6 3dbf
000000d0: cfb0 843f 33a6 d5bd 1041 553f bb1e c6be
000000e0: 4adf 04be a463 8dbf 7bcd 8d3f 36e7 9e3f
000000f0: e8c3 0cbf d0bf ebbd 7b4d 593e 94bc 943f

l2.bias f4 [8]
0.5386348 0.7529987 -0.23570696 -0.2640118 0.41855532 0.18778569 0.57864445 0.50826496
00000000: f8e3 093f 86c4 403f 2a5d 71be 8e2c 87be
00000010: e24c d63e e44a 403e 0b22 143f a71d 023f

l3.weight f4 [4, 8]
0.8298953 -0.954782 -0.1355819 -0.19401635 0.091533154 0.21223308 0.65793425 -0.37190613
-1.0239571 0.87894464 0.11373478 0.30441347 -0.9453844 -0.8628929 -0.3050831 0.83041763
0.47194755 0.6040198 0.16886982 0.13739409 0.8128897 -1.1293184 -0.4770197 -0.56567156
-1.10572 -0.33852872 -0.13525695 -0.2349797 0.13063061 1.0390936 0.28933084 0.5576867
00000000: 0574 543f 986c 74bf fbd5 0abe 39ac 46be
00000010: bc75 bb3d a153 593e 616e 283f 7b6a bebe
00000020: 0711 83bf 8402 613f c8ed e83d 15dc 9b3e
00000030: b604 72bf 8de6 5cbf da33 9cbe 4096 543f
00000040: 1ca3 f13e 0ba1 1a3f 36ec 2c3e 09b1 0c3e
00000050: 8a19 503f 818d 90bf ed3b f4be dacf 10bf
00000060: 3c88 8dbf a353 adbe cc80 0abe 859e 70be
00000070: 08c4 053e 0501 853f 2c23 943e 8ec4 0e3f

l3.bias f4 [4]
-0.17824602 0.0048642117 0.03451901 -0.37946486
00000000: 2086 36be f763 9f3b ce63 0d3d 3849 c2be
