data.pth (torch, 3679 bytes, 6 tensors)

l1.weight f4 [8, 18]
000000 d8 73 81 3e a9 55 fe be 1e c1 c2 3e 72 0e 2f 3f
       0.25283694 -0.4967473 0.38037962 0.68381417
000010 07 33 43 3f 3d 0e 17 3f 2e 59 fe be c1 56 fe be
       0.76249737 0.590061 -0.49677414 -0.49675563
000020 98 84 75 3e f7 d2 0d be a2 62 fe be c6 58 fe be
       0.23976362 -0.13850008 -0.49684626 -0.49677104
000030 45 58 fe be f1 88 7f 3e 64 a0 4e be e1 f3 5a 3f
       -0.4967672 0.24954583 -0.20178372 0.8552838
000040 01 88 9b be f0 3b 46 be 33 26 1f 3f 1e 61 d4 be
       -0.303772 -0.19358802 0.6216766 -0.41480345
000050 d5 79 e7 3e 86 ab 2e 3f 2c 72 1d 3f b0 38 ad 3e
       0.45210138 0.68230474 0.6150234 0.33832312
000060 04 5e d4 be 44 d0 c8 be c2 29 1a 3f 61 3c 44 be
       -0.41477978 -0.39221394 0.6021997 -0.19163658
000070 76 54 d4 be 79 59 d4 be 16 59 d4 be b6 88 22 3f
       -0.4147069 -0.41474512 -0.41474217 0.63489854
000080 37 43 ec bd 2e e4 9a 3e 1c 34 9d be 96 c7 dc bd
       -0.11536258 0.30252212 -0.3070382 -0.107802555
000090 d8 d1 2d bd e4 e9 66 3d 7e aa d3 3d 46 9e d2 3d
       -0.04243645 0.0563754 0.10335253 0.102840945
0000a0 90 aa 38 3c 82 75 f2 bd 49 b2 18 be d3 e9 26 3e
       0.011271134 -0.11838819 -0.1491176 0.16300134
0000b0 c0 f7 67 be 17 dc 6d 3e f0 59 63 bd ee 99 8a 3d
       -0.22653103 0.23228489 -0.055505693 0.06767641
0000c0 fd b6 0e 3e 8e 97 62 be f4 ff 03 be d0 b5 45 bd
       0.13936992 -0.22128126 -0.12890607 -0.048269093
0000d0 54 52 29 be 80 1e 8b 3a a7 f1 ab 3e 49 ed 1c 3f
       -0.16535312 0.0010613948 0.33582804 0.6129957
0000e0 e1 33 a2 3e 64 1f cb be cc 3b 00 bf ff 88 41 be
       0.31680205 -0.39672387 -0.5009124 -0.18899916
0000f0 a8 77 ed be d8 c9 f8 be 5d ec 8f 3e 82 39 27 3f
       -0.46380353 -0.48591495 0.28110018 0.65322125
000100 7e 74 b0 3e 04 36 00 bf e2 b7 d5 3e 1e 65 04 3f
       0.34463876 -0.5008242 0.41741854 0.5171679
000110 a9 f8 1a 3f 5b b3 da bd a6 4a ec 3e 39 aa 3d 3f
       0.60535675 -0.106787406 0.46150702 0.74087864
000120 2b 3c 29 3e 5a 24 eb 3d 75 30 0b 3e 0d f2 e6 bd
       0.16526859 0.11481543 0.13592704 -0.11276636
000130 5a 32 44 3e 5c 81 3d 3e d8 19 c3 bc 78 4d 39 bd
       0.19159833 0.18506378 -0.023816034 -0.045239896
000140 6a ab a1 bd f2 81 47 be 37 18 6e be ad e1 03 be
       -0.07894023 -0.19483164 -0.23251425 -0.12879057
000150 bd f4 54 be 0a 7d 3f be dd fb 40 3e 8e cf c1 3d
       -0.20796485 -0.18700042 0.18846078 0.09463416
000160 66 c5 ae bd f7 a0 3d be 96 4f 91 be 56 86 15 bf
       -0.085337445 -0.18518434 -0.28381032 -0.58408105
000170 3a 37 6b be 67 a0 b5 3e 5a 2b 17 3e 25 ce 83 3d
       -0.22970286 0.3547394 0.14762631 0.06435803
000180 96 25 5a 3f 33 e9 63 3f 4f 1e 87 be 2e 11 a2 3c
       0.852136 0.8902771 -0.2639031 0.019783583
000190 8f 87 15 bf 97 6e 45 3f d5 85 15 bf 25 ab 26 3c
       -0.5840997 0.7712187 -0.58407336 0.01017264
0001a0 45 f8 a3 be 68 4c 77 3e 08 f4 8b be 72 33 91 be
       -0.32025352 0.2415024 -0.2733462 -0.28359562
0001b0 b1 6a 40 3f 3f b9 c4 3e d6 8e 46 3f e5 cc b5 be
       0.751628 0.38422582 0.775617 -0.35507885
0001c0 d7 fc e0 be ed 05 f8 be e0 39 00 bf b7 78 fd be
       -0.43942901 -0.4844202 -0.5008831 -0.4950616
0001d0 6e 4f 46 3f 35 cb 3f 3e 87 15 21 3f 2b 3c 00 bf
       0.7746495 0.18729861 0.62923473 -0.5009181
0001e0 dd 74 19 3f a0 a3 46 3f 1d 27 77 3e fc 38 00 bf
       0.59943944 0.7759342 0.24136014 -0.5008695
0001f0 11 51 9c 3e 3d 2d ca 3e 01 bd ed be 33 1e e0 3e
       0.305306 0.3948764 -0.4643326 0.4377304
000200 98 35 fc be 87 61 3b 3f 68 dd db 3e 04 b7 53 3f
       -0.4925964 0.7319569 0.42942357 0.82701135
000210 27 60 1c bf 0c 5d 1c bf f6 2f e3 be 12 d4 0b 3e
       -0.61084217 -0.6107948 -0.4437253 0.13655117
000220 70 44 20 3f f1 95 00 bf de e4 25 3f 44 95 d7 be
       0.6260443 -0.5022879 0.6480235 -0.42106068
000230 4a 07 d4 3e d3 d0 23 3f 85 95 10 3f aa 5f e2 3e
       0.4141181 0.63990515 0.5647815 0.4421361

l1.bias f4 [8]
000000 e9 57 fe 3e ce 56 d4 3e 03 c8 33 be 9b 34 00 3f
       0.49676445 0.41472477 -0.17556767 0.5008027
000010 f8 1a 52 be 67 86 15 3f 9d 39 00 3f 33 63 1c 3f
       -0.205181 0.58408207 0.5008791 0.61088866

l2.weight f4 [8, 8]
000000 11 ca 1d bf 66 30 3e bf b8 2f 85 3d 92 88 9f be
       -0.61636454 -0.742926 0.06503242 -0.31158882
000010 4b 83 aa 3e 73 a9 a9 3f e8 47 e4 be 37 5d d8 bd
       0.33303294 1.3254837 -0.4458611 -0.10564654
000020 90 40 6e bf d8 56 9e bf 2e 08 5a 3e e9 34 8c 3f
       -0.93067265 -1.2370253 0.21292183 1.0953647
000030 f7 98 b2 be 25 bc 5f bf 95 2b 17 3f 70 23 a9 3f
       -0.34882328 -0.8739646 0.59050876 1.321394
000040 a9 0f a2 be bc a4 a1 bd 58 5b a3 be cc 43 c6 3d
       -0.31652573 -0.07892749 -0.31905627 0.096809
000050 88 a0 c3 bd 25 d2 15 be 28 85 32 bd cd 09 67 be
       -0.09552103 -0.14630945 -0.04358402 -0.22562332
000060 89 e6 36 3f 15 37 0d 3f f0 09 28 bd 07 5a f3 be
       0.7144552 0.55162174 -0.041025102 -0.47529623
000070 d0 9e ee bd 3d b4 78 3e d3 11 51 bf e7 80 72 3f
       -0.11651385 0.24287505 -0.8166782 0.9472794
000080 e7 94 b6 3f d8 d0 db 3f f3 22 95 3e 16 8c b4 3f
       1.4264191 1.7173109 0.29128227 1.4105251
000090 c2 04 07 be 81 23 af be c8 2c 6e 3f 89 43 c9 3e
       -0.13185409 -0.34206775 0.9303708 0.39309338
0000a0 56 52 88 3f 9d 1a 13 3f 20 3d 96 3c 1e 05 dd be
       1.0650127 0.57462484 0.018339694 -0.43167967
0000b0 a0 e3 8a 3e ae 53 1d 3e e7 6f 83 bf c9 00 89 3f
       0.2712679 0.15363953 -1.0268525 1.0703365
0000c0 52 56 35 be 66 b2 59 3e 08 16 52 be 00 c6 98 bc
       -0.1770871 0.2125946 -0.20516217 -0.018649101
0000d0 cc 77 e7 3d 45 ba 4c be d2 f1 77 3e 13 eb 66 be
       0.11302146 -0.19992931 0.24213341 -0.22550611
0000e0 75 c9 4c be 48 50 85 be 94 ea b7 bd ed 37 29 bf
       -0.19998725 -0.26037812 -0.08980289 -0.6610096
0000f0 c0 39 c7 3b d4 a5 a6 3f 83 09 46 bf 8c 6d b5 3d
       0.0060798824 1.3019357 -0.77358264 0.08858785

l2.bias f4 [8]
000000 c5 a1 09 3f 29 02 c9 3e 6c 1b 35 be cf 7b b8 3d
       0.53762466 0.3925946 -0.17686242 0.090079896
000010 eb cd e0 3e 39 cd 4e 3d 2d c5 9e be e0 0e 18 3f
       0.43907103 0.050488684 -0.31009808 0.593977

l3.weight f4 [4, 8]
000000 d0 57 01 bf c7 80 a5 3f 8c 17 bb bd a9 a5 3a bf
       -0.50524616 1.2929925 -0.091353506 -0.7290903
000010 f5 61 9d be 39 65 3c bf e2 99 67 3e f7 3c 85 bf
       -0.30738798 -0.73591954 0.22617295 -1.040923
000020 fc 38 80 be 9c 0b b1 bf 29 13 b2 3e 15 fa 73 bf
       -0.25043476 -1.3831668 0.34780243 -0.9530347
000030 37 35 48 3f 60 04 82 bf d4 8a e0 bd 10 4c 86 bf
       0.782062 -1.0157585 -0.10963979 -1.0491962
000040 92 07 83 be 28 ac 46 bf 16 5c 53 be 92 65 5f 3f
       -0.25591713 -0.7760644 -0.20640597 0.8726436
000050 bc a9 26 be c6 1a 7c 3f 48 df f1 3d f8 06 97 be
       -0.16275686 0.98478353 0.11810166 -0.29497504
000060 3b 33 7e 3f f9 8e f8 be 0e 4f 9e be ce 51 fe 3d
       0.9929692 -0.4854658 -0.3091969 0.12417947
000070 28 89 87 bf 44 ac ad bc d6 5e f0 bd 84 37 6e 3f
       -1.0588732 -0.021200307 -0.117368385 0.9305346

l3.bias f4 [4]
000000 65 39 23 3e 8e ff 75 3e 6b 50 2e bf 24 3c 83 bd
       0.15939863 0.24023268 -0.6809146 -0.06407955
